…
 size \\(148 \\times 148\\). Deeper parts of the network have more layers, but each is smaller.\nWe will see how to load and inspect these features in the next lecture.\n\n\nf <- tempfile()\ndownload.file(\"https://uwmadison.box.com/shared/static/9wu6amgizhgnnefwrnyqzkf8glb6ktny.h5\", f)\nmodel <- load_model_hdf5(f)\nmodel\n\nModel: \"sequential_1\"\n______________________________________________________________________\n Layer (type)                  Output Shape                Param #    \n======================================================================\n conv2d_7 (Conv2D)             (None, 148, 148, 32)        896        \n max_pooling2d_7 (MaxPooling2  (None, 74, 74, 32)          0          \n D)                                                                   \n conv2d_6 (Conv2D)             (None, 72, 72, 64)          18496      \n max_pooling2d_6 (MaxPooling2  (None, 36, 36, 64)          0          \n D)                                                                   \n conv2d_5 (Conv2D)             (None, 34, 34, 128)         73856      \n max_pooling2d_5 (MaxPooling2  (None, 17, 17, 128)         0          \n D)                                                                   \n conv2d_4 (Conv2D)             (None, 15, 15, 128)         147584     \n max_pooling2d_4 (MaxPooling2  (None, 7, 7, 128)           0          \n D)                                                                   \n flatten_1 (Flatten)           (None, 6272)                0          \n dropout (Dropout)             (None, 6272)                0          \n dense_3 (Dense)               (None, 512)                 3211776    \n dense_2 (Dense)               (None, 1)                   513        \n======================================================================\nTotal params: 3453121 (13.17 MB)\nTrainable params: 3453121 (13.17 MB)\nNon-trainable params: 0 (0.00 Byte)\n______________________________________________________________________\n\nWhile we will only consider image data in this course, the idea of learning\ncomplex features by composing a few types of layers is a g
…
